…
  | 4/5 [00:02<00:00,  1.93it/s, eval_psnr=23.5, loss_mc=0.00158, loss_moi=0.00395, total_loss=0.00553, train_psnr=19.5]    Epoch 1: 100%|██████████| 5/5 [00:02<00:00,  1.92it/s, eval_psnr=23.5, loss_mc=0.00158, loss_moi=0.00395, total_loss=0.00553, train_psnr=19.5]    Epoch 1: 100%|██████████| 5/5 [00:02<00:00,  1.92it/s, eval_psnr=23.5, loss_mc=0.00158, loss_moi=0.00395, total_loss=0.00553, train_psnr=19.5]

    ArtifactRemoval(
      (backbone_net): UNet(
        (Maxpool): MaxPool2d(kernel_size=2, stride=2, padding=0, dilation=1, ceil_mode=False)
        (Conv1): Sequential(
          (0): Conv2d(1, 64, kernel_size=(3, 3), stride=(1, 1), padding=(1, 1))
          (1): BatchNorm2d(64, eps=1e-05, momentum=0.1, affine=True, track_running_stats=True)
          (2): ReLU(inplace=True)
          (3): Conv2d(64, 64, kernel_size=(3, 3), stride=(1, 1), padding=(1, 1))
          (4): BatchNorm2d(64, eps=1e-05, momentum=0.1, affine=True, track_running_stats=True)
          (5): ReLU(inplace=True)
        )
        (Conv2): Sequential(
          (0): Conv2d(64, 128, kernel_size=(3, 3), stride=(1, 1), padding=(1, 1))
          (1): BatchNorm2d(128, eps=1e-05, momentum=0.1, affine=True, track_running_stats=True)
          (2): ReLU(inplace=True)
          (3): Conv2d(128, 128, kernel_size=(3, 3), stride=(1, 1), padding=(1, 1))
          (4): BatchNorm2d(128, eps=1e-05, momentum=0.1, affine=True, track_running_stats=True)
          (5): ReLU(inplace=True)
        )
        (Conv3): Sequential(
          (0): Conv2d(128, 256, kernel_size=(3, 3), stride=(1, 1), padding=(1, 1))
          (1): BatchNorm2d(256, eps=1e-05, momentum=0.1, affine=True, track_running_stats=True)
          (2): ReLU(inplace=True)
          (3): Conv2d(256, 256, kernel_size=(3, 3), stride=(1, 1), padding=(1, 1))
          (4): BatchNorm2d(256, eps=1e-05, momentum=0.1, affine=True, track_running_stats=True)
          (5): ReLU(inplace=True)
        )
        (Up3): Sequential(
          (0): Upsample(scale_factor=2.0, mode='nearest')
          (1): Conv2d(256, 128, kernel_size=(3, 3), stride=(1, 1), padding=(1, 1))
          (2): BatchNorm2d(128, eps=1e-05, momentum=0.1, affine=True, track_running_stats=True)
          (3): ReLU(inplace=True)
        )
        (Up_conv3): Sequential(
          (0): Conv2d(256, 128, kernel_size=(3, 3), stride=(1, 1), padding=(1, 1))
          (1): BatchNorm2d(128, eps=1e-05, momentum=0.1, affine=True, track_running_stats=True)
          (2): ReLU(inplace=True)
          (3): Conv2d(128, 128, kernel_size=(3, 3), stride=(1, 1), padding=(1, 1))
          (4): BatchNorm2d(128, eps=1e-05, momentum=0.1, affine=True, track_running_stats=True)
          (5): ReLU(inplace=True)
        )
        (Up2): Sequential(
          (0): Upsample(scale_factor=2.0, mode='nearest')
          (1): Conv2d(128, 64, kernel_size=(3, 3), stride=(1, 1), padding=(1, 1))
          (2): BatchNorm2d(64, eps=1e-05, momentum=0.1, affine=True, track_running_stats=True)
          (3): ReLU(inplace=True)
        )
        (Up_conv2): Sequential(
          (0): Conv2d(128, 64, kernel_size=(3, 3), stride=(1, 1), padding=(1, 1))
          (1): BatchNorm2d(64, eps=1e-05, momentum=0.1, affine=True, track_running_stats=True)
          (2): ReLU(inplace=True)
          (3): Conv2d(64, 64, kernel_size=(3, 3), stride=(1, 1), padding=(1, 1))
          (4): BatchNorm2d(64, eps=1e-05, momentum=0.1, affine=True, track_running_stats=True)
          (5): ReLU(inplace=True)
        )
        (Conv_1x1): Conv2d(64, 1, kernel_size=(1, 1), stride=(1, 1))
      )
    )



.. GENERATED FROM PYTHON SOURCE LINES 198-202

Test the network
--------------------------------------------



.. GENERATED FROM PYTHON SOURCE LINES 202-216

.. code-block:: Python


    plot_images = True
    method = "multioperator_imaging"

    test(
        model=model,
        test_dataloader=test_dataloader,
        physics=physics,
…
